{"class_name": "Model", "config": {"name": "model_3", "layers": [{"class_name": "InputLayer", "config": {"batch_input_shape": [null, 64, 6], "dtype": "float32", "sparse": false, "ragged": false, "name": "input_3"}, "name": "input_3", "inbound_nodes": []}, {"class_name": "TCN", "config": {"name": "tcn_2", "trainable": true, "dtype": "float32", "nb_filters": 85, "kernel_size": 2, "nb_stacks": 1, "dilations": [1, 2, 4], "padding": "causal", "use_skip_connections": true, "dropout_rate": 0.0, "return_sequences": true, "activation": "selu", "use_batch_norm": false, "use_layer_norm": false, "kernel_initializer": "he_normal"}, "name": "tcn_2", "inbound_nodes": [[["input_3", 0, 0, {}]]]}, {"class_name": "BatchNormalization", "config": {"name": "batch_normalization_2", "trainable": true, "dtype": "float32", "axis": [2], "momentum": 0.99, "epsilon": 0.001, "center": true, "scale": true, "beta_initializer": {"class_name": "Zeros", "config": {}}, "gamma_initializer": {"class_name": "Ones", "config": {}}, "moving_mean_initializer": {"class_name": "Zeros", "config": {}}, "moving_variance_initializer": {"class_name": "Ones", "config": {}}, "beta_regularizer": null, "gamma_regularizer": null, "beta_constraint": null, "gamma_constraint": null}, "name": "batch_normalization_2", "inbound_nodes": [[["tcn_2", 0, 0, {}]]]}, {"class_name": "MaxPooling1D", "config": {"name": "max_pooling1d_1", "trainable": true, "dtype": "float32", "strides": [2], "pool_size": [2], "padding": "valid", "data_format": "channels_last"}, "name": "max_pooling1d_1", "inbound_nodes": [[["batch_normalization_2", 0, 0, {}]]]}, {"class_name": "TCN", "config": {"name": "tcn_3", "trainable": true, "dtype": "float32", "nb_filters": 85, "kernel_size": 2, "nb_stacks": 1, "dilations": [1, 2, 4], "padding": "causal", "use_skip_connections": true, "dropout_rate": 0.0, "return_sequences": true, "activation": "selu", "use_batch_norm": false, "use_layer_norm": false, "kernel_initializer": "he_normal"}, "name": "tcn_3", "inbound_nodes": [[["max_pooling1d_1", 0, 0, {}]]]}, {"class_name": "BatchNormalization", "config": {"name": "batch_normalization_3", "trainable": true, "dtype": "float32", "axis": [2], "momentum": 0.99, "epsilon": 0.001, "center": true, "scale": true, "beta_initializer": {"class_name": "Zeros", "config": {}}, "gamma_initializer": {"class_name": "Ones", "config": {}}, "moving_mean_initializer": {"class_name": "Zeros", "config": {}}, "moving_variance_initializer": {"class_name": "Ones", "config": {}}, "beta_regularizer": null, "gamma_regularizer": null, "beta_constraint": null, "gamma_constraint": null}, "name": "batch_normalization_3", "inbound_nodes": [[["tcn_3", 0, 0, {}]]]}, {"class_name": "MaxPooling1D", "config": {"name": "max_pooling1d_2", "trainable": true, "dtype": "float32", "strides": [2], "pool_size": [2], "padding": "valid", "data_format": "channels_last"}, "name": "max_pooling1d_2", "inbound_nodes": [[["batch_normalization_3", 0, 0, {}]]]}, {"class_name": "Flatten", "config": {"name": "flatten_1", "trainable": true, "dtype": "float32", "data_format": "channels_last"}, "name": "flatten_1", "inbound_nodes": [[["max_pooling1d_2", 0, 0, {}]]]}, {"class_name": "Dense", "config": {"name": "dense_3", "trainable": true, "dtype": "float32", "units": 16, "activation": "linear", "use_bias": true, "kernel_initializer": {"class_name": "GlorotUniform", "config": {"seed": null}}, "bias_initializer": {"class_name": "Zeros", "config": {}}, "kernel_regularizer": null, "bias_regularizer": null, "activity_regularizer": null, "kernel_constraint": null, "bias_constraint": null}, "name": "dense_3", "inbound_nodes": [[["flatten_1", 0, 0, {}]]]}, {"class_name": "Dense", "config": {"name": "dense_4", "trainable": true, "dtype": "float32", "units": 16, "activation": "linear", "use_bias": true, "kernel_initializer": {"class_name": "GlorotUniform", "config": {"seed": null}}, "bias_initializer": {"class_name": "Zeros", "config": {}}, "kernel_regularizer": null, "bias_regularizer": null, "activity_regularizer": null, "kernel_constraint": null, "bias_constraint": null}, "name": "dense_4", "inbound_nodes": [[["flatten_1", 0, 0, {}]]]}, {"class_name": "Sampling", "config": {"name": "sampling_1", "trainable": true, "dtype": "float32"}, "name": "sampling_1", "inbound_nodes": [[["dense_3", 0, 0, {}], ["dense_4", 0, 0, {}]]]}], "input_layers": [["input_3", 0, 0]], "output_layers": [["dense_3", 0, 0], ["dense_4", 0, 0], ["sampling_1", 0, 0]]}, "keras_version": "2.3.0-tf", "backend": "tensorflow"}